…
downloaded and verified
Files already downloaded and verified
split_boundaries: [0, 10, 20, 30, 40, 50, 60, 70, 80, 90, 100]
{'1': [0, 1, 2, 3, 4, 5, 6, 7, 8, 9], '2': [10, 11, 12, 13, 14, 15, 16, 17, 18, 19], '3': [20, 21, 22, 23, 24, 25, 26, 27, 28, 29], '4': [30, 31, 32, 33, 34, 35, 36, 37, 38, 39], '5': [40, 41, 42, 43, 44, 45, 46, 47, 48, 49], '6': [50, 51, 52, 53, 54, 55, 56, 57, 58, 59], '7': [60, 61, 62, 63, 64, 65, 66, 67, 68, 69], '8': [70, 71, 72, 73, 74, 75, 76, 77, 78, 79], '9': [80, 81, 82, 83, 84, 85, 86, 87, 88, 89], '10': [90, 91, 92, 93, 94, 95, 96, 97, 98, 99]}
CNN(
  (input): Conv2d(3, 32, kernel_size=(3, 3), stride=(1, 1), padding=(1, 1))
  (c1): Sequential(
    (0): Conv2d(32, 32, kernel_size=(3, 3), stride=(1, 1), padding=(1, 1))
    (1): Conv2d(32, 64, kernel_size=(3, 3), stride=(1, 1), padding=(1, 1))
    (2): MaxPool2d(kernel_size=2, stride=2, padding=0, dilation=1, ceil_mode=False)
    (3): Dropout(p=0.25, inplace=False)
  )
  (c2): Sequential(
    (0): Conv2d(64, 64, kernel_size=(3, 3), stride=(1, 1), padding=(1, 1))
    (1): Conv2d(64, 128, kernel_size=(3, 3), stride=(1, 1), padding=(1, 1))
    (2): MaxPool2d(kernel_size=2, stride=2, padding=0, dilation=1, ceil_mode=False)
    (3): Dropout(p=0.25, inplace=False)
  )
  (c3): Sequential(
    (0): Conv2d(128, 128, kernel_size=(3, 3), stride=(1, 1), padding=(1, 1))
    (1): Conv2d(128, 128, kernel_size=(3, 3), stride=(1, 1), padding=(1, 1))
    (2): MaxPool2d(kernel_size=2, stride=2, padding=1, dilation=1, ceil_mode=False)
    (3): Dropout(p=0.25, inplace=False)
  )
  (fc1): Linear(in_features=3200, out_features=256, bias=True)
  (last): ModuleDict(
    (1): Linear(in_features=256, out_features=10, bias=True)
    (2): Linear(in_features=256, out_features=10, bias=True)
    (3): Linear(in_features=256, out_features=10, bias=True)
    (4): Linear(in_features=256, out_features=10, bias=True)
    (5): Linear(in_features=256, out_features=10, bias=True)
    (6): Linear(in_features=256, out_features=10, bias=True)
    (7): Linear(in_features=256, out_features=10, bias=True)
    (8): Linear(in_features=256, out_features=10, bias=True)
    (9): Linear(in_features=256, out_features=10, bias=True)
    (10): Linear(in_features=256, out_features=10, bias=True)
  )
)
#parameter of model: 1279748
Task order: ['1', '2', '3', '4', '5', '6', '7', '8', '9', '10']
====================== 1 =======================
#reg_term: 0
Epoch:0
LR: 0.001
Itr		Time		  Data		  Loss		Acc
[0/40]	0.4542 (0.4542)	0.1689 (0.1689)	2.306 (2.306)	7.03 (7.03)
[39/40]	0.0100 (0.0281)	0.0004 (0.0056)	1.227 (2.009)	75.00 (27.70)
 * Train Acc 27.700
…
